…
Epoch: 87, Running Loss: 119.20183324813843
Epoch: 88, Running Loss: 118.57784986495972
Epoch: 89, Running Loss: 118.12209701538086
Epoch: 90, Running Loss: 117.62959623336792
Epoch: 91, Running Loss: 116.05135202407837
Epoch: 92, Running Loss: 114.50130224227905
Epoch: 93, Running Loss: 115.91150426864624
Epoch: 94, Running Loss: 114.50255727767944
Epoch: 95, Running Loss: 109.77825164794922
Epoch: 96, Running Loss: 113.04204416275024
Epoch: 97, Running Loss: 110.90451669692993
Epoch: 98, Running Loss: 109.12486982345581
Epoch: 99, Running Loss: 109.12285804748535
END OF PRETRAINING!
SAINT(
  (norm): LayerNorm((3,), eps=1e-05, elementwise_affine=True)
  (simple_MLP): ModuleList(
    (0-2): 3 x simple_MLP(
      (layers): Sequential(
        (0): Linear(in_features=1, out_features=100, bias=True)
        (1): SiLU()
        (2): Linear(in_features=100, out_features=16, bias=True)
      )
    )
  )
  (transformer): RowColTransformer(
    (embeds): Embedding(44, 16)
    (layers): ModuleList(
      (0): ModuleList(
        (0): PreNorm(
          (norm): LayerNorm((16,), eps=1e-05, elementwise_affine=True)
          (fn): Residual(
            (fn): Attention(
              (to_qkv): Linear(in_features=16, out_features=192, bias=False)
              (to_out): Linear(in_features=64, out_features=16, bias=True)
              (chebnet): PolyConvFrame(
                (thetas): ParameterList(
                    (0): Parameter containing: [torch.float32 of size  (GPU 0)]
                    (1): Parameter containing: [torch.float32 of size  (GPU 0)]
                    (2): Parameter containing: [torch.float32 of size  (GPU 0)]
                    (3): Parameter containing: [torch.float32 of size  (GPU 0)]
                    (4): Parameter containing: [torch.float32 of size  (GPU 0)]
                    (5): Parameter containing: [torch.float32 of size  (GPU 0)]
                )
              )
              (dropout): Dropout(p=0.8, inplace=False)
            )
          )
        )
        (1): PreNorm(
          (norm): LayerNorm((16,), eps=1e-05, elementwise_affine=True)
          (fn): Residual(
            (fn): FeedForward(
              (net): Sequential(
                (0): Linear(in_features=16, out_features=128, bias=True)
                (1): GEGLU()
                (2): Dropout(p=0.8, inplace=False)
                (3): Linear(in_features=64, out_features=16, bias=True)
              )
            )
          )
        )
        (2): PreNorm(
          (norm): LayerNorm((320,), eps=1e-05, elementwise_affine=True)
          (fn): Residual(
            (fn): Attention(
              (to_qkv): Linear(in_features=320, out_features=768, bias=False)
              (to_out): Linear(in_features=256, out_features=320, bias=True)
              (chebnet): PolyConvFrame(
                (thetas): ParameterList(
                    (0): Parameter containing: [torch.float32 of size  (GPU 0)]
                    (1): Parameter containing: [torch.float32 of size  (GPU 0)]
                    (2): Parameter containing: [torch.float32 of size  (GPU 0)]
                    (3): Parameter containing: [torch.float32 of size  (GPU 0)]
                    (4): Parameter containing: [torch.float32 of size  (GPU 0)]
                    (5): Parameter containing: [torch.float32 of size  (GPU 0)]
                )
              )
              (dropout): Dropout(p=0.8, inplace=False)
            )
          )
        )
        (3): PreNorm(
          (norm): LayerNorm((320,), eps=1e-05, elementwise_affine=True)
          (fn): Residual(
            (fn): FeedForward(
              (net): Sequential(
                (0): Linear(in_features=320, out_features=2560, bias=True)
                (1): GEGLU()
                (2): Dropout(p=0.8, inplace=False)
                (3): Linear(in_features=1280, out_features=320, bias=True)
              )
            )
          )
        )
      )
    )
    (mask_embed): Embedding(20, 16)
  )
  (mlp): MLP(
    (mlp): Sequential(
      (0): Linear(in_features=320, out_features=160, bias=True)
      (1): Linear(in_features=160, out_features=80, bias=True)
      (2): Linear(in_features=80, out_features=1, bias=True)
    )
  )
  (embeds): Embedding(44, 16)
  (mask_embeds_cat): Embedding(34, 16)
  (mask_embeds_cont): Embedding(6, 16)
  (single_mask): Embedding(2, 16)
  (pos_encodings): Embedding(20, 16)
  (mlp1): sep_MLP(
    (layers): ModuleList(
      (0): simple_MLP(
        (layers): Sequential(
          (0): Linear(in_features=16, out_features=80, bias=True)
          (1): SiLU()
          (2): Linear(in_features=80, out_features=1, bias=True)
        )
      )
      (1-5): 5 x simple_MLP(
        (layers): Sequential(
          (0): Linear(in_features=16, out_features=80, bias=True)
          (1): SiLU()
          (2): Linear(in_features=80, out_features=2, bias=True)
        )
      )
      (6-14): 9 x simple_MLP(
        (layers): Sequential(
          (0): Linear(in_features=16, out_features=80, bias=True)
          (1): SiLU()
          (2): Linear(in_features=80, out_features=3, bias=True)
        )
      )
      (15): simple_MLP(
        (layers): Sequential(
          (0): Linear(in_features=16, out_features=80, bias=True)
          (1): SiLU()
          (2): Linear(in_features=80, out_features=2, bias=True)
        )
      )
      (16): simple_MLP(
        (layers): Sequential(
          (0): Linear(in_features=16, out_features=80, bias=True)
          (1): SiLU()
          (2): Linear(in_features=80, out_features=4, bias=True)
        )
      )
    )
  )
  (mlp2): sep_MLP(
    (layers): ModuleList(
      (0-2): 3 x simple_MLP(
        (layers): Sequential(
          (0): Linear(in_features=16, out_features=80, bias=True)
          (1): SiLU()
          (2): Linear(in_features=80, out_features=1, bias=True)
        )
      )
    )
  )
  (mlpfory): simple_MLP(
    (layers): Sequential(
      (0): Linear(in_features=16, out_features=16, bias=True)
      (1): SiLU()
      (2): Linear(in_features=16, out_features=8, bias=True)
      (3): SiLU()
      (4): Linear(in_features=8, out_features=2, bias=True)
    )
  )
  (pt_mlp): simple_MLP(
    (layers): Sequential(
      (0): Linear(in_features=320, out_features=384, bias=True)
      (1): SiLU()
      (2): Linear(in_features=384, out_features=160, bias=True)
    )
  )
  (pt_mlp2): simple_MLP(
    (layers): Sequential(
      (0): Linear(in_features=320, out_features=384, bias=True)
      (1): SiLU()
      (2): Linear(in_features=384, out_features=160, bias=True)
    )
  )
)
The number of model parameters: 2042020
Training begins now.
[EPOCH 1] VALID ACCURACY: 78.178, VALID AUROC: 0.841
[EPOCH 1] TEST ACCURACY: 75.545, TEST AUROC: 0.834
[EPOCH 1] VALID ACCURACY: 78.178, VALID AUROC: 0.841
[EPOCH 1] TEST ACCURACY: 75.545, TEST AUROC: 0.834
[EPOCH 1] VALID ACCURACY: 78.178, VALID AUROC: 0.841
[EPOCH 1] TEST ACCURACY: 75.545, TEST AUROC: 0.834
…
