  dataset_name  embed_dim  num_heads  ff_dim  ...  K  alpha  beta  polynomial
0     phishing         64          3      32  ...  3    1.0   0.3      jacobi

[1 rows x 16 columns]
20 20
MET(
  (mask_emb): Linear(in_features=3, out_features=1, bias=True)
  (emb_layer): TokenAndPositionEmbedding(
    (pos_emb): Embedding(19, 64)
  )
  (encoder): TransformerBlock(
    (layers): ModuleList(
      (0-2): 3 x ModuleList(
        (0): PreNorm(
          (norm): LayerNorm((65,), eps=1e-05, elementwise_affine=True)
          (fn): Residual(
            (fn): Attention(
              (to_qkv): Linear(in_features=65, out_features=576, bias=False)
              (to_out): Linear(in_features=192, out_features=65, bias=True)
              (dropout): Dropout(p=0.1, inplace=False)
              (chebnet): PolyConvFrame(
                (thetas): ParameterList(
                    (0): Parameter containing: [torch.float32 of size  (GPU 0)]
                    (1): Parameter containing: [torch.float32 of size  (GPU 0)]
                    (2): Parameter containing: [torch.float32 of size  (GPU 0)]
                    (3): Parameter containing: [torch.float32 of size  (GPU 0)]
                )
              )
            )
          )
        )
        (1): PreNorm(
          (norm): LayerNorm((65,), eps=1e-05, elementwise_affine=True)
          (fn): Residual(
            (fn): FeedForward(
              (net): Sequential(
                (0): Linear(in_features=65, out_features=4, bias=True)
                (1): ReLU()
                (2): Dropout(p=0.2, inplace=False)
                (3): Linear(in_features=4, out_features=65, bias=True)
              )
            )
          )
        )
      )
    )
  )
  (decoder): TransformerBlock(
    (layers): ModuleList(
      (0-2): 3 x ModuleList(
        (0): PreNorm(
          (norm): LayerNorm((65,), eps=1e-05, elementwise_affine=True)
          (fn): Residual(
            (fn): Attention(
              (to_qkv): Linear(in_features=65, out_features=576, bias=False)
              (to_out): Linear(in_features=192, out_features=65, bias=True)
              (dropout): Dropout(p=0.1, inplace=False)
            )
          )
        )
        (1): PreNorm(
          (norm): LayerNorm((65,), eps=1e-05, elementwise_affine=True)
          (fn): Residual(
            (fn): FeedForward(
              (net): Sequential(
                (0): Linear(in_features=65, out_features=4, bias=True)
                (1): ReLU()
                (2): Dropout(p=0.2, inplace=False)
                (3): Linear(in_features=4, out_features=65, bias=True)
              )
            )
          )
        )
      )
    )
  )
  (mlp): Linear(in_features=65, out_features=1, bias=True)
)
./tabpsa/phishing/64_3_32_3_3_0.005_2_3_0.001_jacobi_1.0_0.3
trained model does not exists
The number of model parameters: 306302
Epoch: 0 -- Train Loss: 0.7970189452171326
Validation loss decreased (inf --> 5.997999).  Saving model ...
Epoch: 0 -- Val Loss: 5.99799919128418
Epoch: 1 -- Train Loss: 0.5118908286094666
Validation loss decreased (5.997999 --> 3.908428).  Saving model ...
…
