…
e', task='binary', output_dir='./output', log_name='income_best', seed=0, device='cuda', gpu_id='0', epoch=10000, weight_decay=0.001, learning_rate=0.001, batch_size=1024, early_stopping_rounds=15, K=5, polynomial='chebyshev', dim=32, depth=6, n_heads=2, hidden_mlp=128, attn_dropout=0.1, ff_dropout=0.1, categ_loss_ratio=0.1, log_path='./output/income_best.log', pretrain_checkpoint_path='./output/income_best_pretrain.pt', finetune_checkpoint_path='./output/income_best_finetune.pt', mlp_checkpoint_path='./output/income_best_mlp.pt')
2024-02-02 17:19:12,825 - TabTransformer_TabPSA(
  (categ_embed): Embedding(100, 32)
  (norm): LayerNorm((6,), eps=1e-05, elementwise_affine=True)
  (transformer): PolyTransformer(
    (layers): ModuleList(
      (0-5): 6 x ModuleList(
        (0): PreNorm(
          (norm): LayerNorm((32,), eps=1e-05, elementwise_affine=True)
          (fn): PolyAttention(
            (to_qkv): Linear(in_features=32, out_features=96, bias=False)
            (to_out): Linear(in_features=32, out_features=32, bias=True)
            (dropout): Dropout(p=0.1, inplace=False)
            (chebnet): PolyConvFrame(
              (thetas): ParameterList(
                  (0): Parameter containing: [torch.float32 of size  (GPU 0)]
                  (1): Parameter containing: [torch.float32 of size  (GPU 0)]
                  (2): Parameter containing: [torch.float32 of size  (GPU 0)]
                  (3): Parameter containing: [torch.float32 of size  (GPU 0)]
                  (4): Parameter containing: [torch.float32 of size  (GPU 0)]
                  (5): Parameter containing: [torch.float32 of size  (GPU 0)]
              )
            )
          )
        )
        (1): PreNorm(
          (norm): LayerNorm((32,), eps=1e-05, elementwise_affine=True)
          (fn): FeedForward(
            (net): Sequential(
              (0): Linear(in_features=32, out_features=256, bias=True)
              (1): GEGLU()
              (2): Dropout(p=0.1, inplace=False)
              (3): Linear(in_features=128, out_features=32, bias=True)
            )
          )
        )
      )
    )
  )
  (mlp): MLP(
    (mlp): Sequential(
      (0): Linear(in_features=262, out_features=128, bias=True)
      (1): SELU()
      (2): Linear(in_features=128, out_features=64, bias=True)
      (3): SELU()
      (4): Linear(in_features=64, out_features=104, bias=True)
    )
  )
)
2024-02-02 17:19:12,829 - # params of pretrained model: 152920

2024-02-02 17:19:18,352 - {'epoch': 0, 'train_loss': '1.5002'}
2024-02-02 17:19:19,492 - Validation score increased.  Saving model ...
2024-02-02 17:19:22,933 - {'epoch': 1, 'train_loss': '1.0246'}
2024-02-02 17:19:23,701 - Validation score increased.  Saving model ...
2024-02-02 17:19:28,172 - {'epoch': 2, 'train_loss': '0.9524'}
…
