…
binary', output_dir='./output', log_name='phishing_best', seed=0, device='cuda', gpu_id='2', epoch=10000, weight_decay=1e-06, learning_rate=0.005, batch_size=1024, early_stopping_rounds=15, K=3, polynomial='chebyshev', dim=32, depth=6, n_heads=4, hidden_mlp=512, attn_dropout=0.1, ff_dropout=0.1, categ_loss_ratio=0.1, log_path='./output/phishing_best.log', pretrain_checkpoint_path='./output/phishing_best_pretrain.pt', finetune_checkpoint_path='./output/phishing_best_finetune.pt', mlp_checkpoint_path='./output/phishing_best_mlp.pt')
2024-02-02 09:36:39,498 - TabTransformer_TabPSA(
  (categ_embed): Embedding(45, 32)
  (norm): LayerNorm((3,), eps=1e-05, elementwise_affine=True)
  (transformer): PolyTransformer(
    (layers): ModuleList(
      (0-5): 6 x ModuleList(
        (0): PreNorm(
          (norm): LayerNorm((32,), eps=1e-05, elementwise_affine=True)
          (fn): PolyAttention(
            (to_qkv): Linear(in_features=32, out_features=192, bias=False)
            (to_out): Linear(in_features=64, out_features=32, bias=True)
            (dropout): Dropout(p=0.1, inplace=False)
            (chebnet): PolyConvFrame(
              (thetas): ParameterList(
                  (0): Parameter containing: [torch.float32 of size  (GPU 0)]
                  (1): Parameter containing: [torch.float32 of size  (GPU 0)]
                  (2): Parameter containing: [torch.float32 of size  (GPU 0)]
                  (3): Parameter containing: [torch.float32 of size  (GPU 0)]
              )
            )
          )
        )
        (1): PreNorm(
          (norm): LayerNorm((32,), eps=1e-05, elementwise_affine=True)
          (fn): FeedForward(
            (net): Sequential(
              (0): Linear(in_features=32, out_features=256, bias=True)
              (1): GEGLU()
              (2): Dropout(p=0.1, inplace=False)
              (3): Linear(in_features=128, out_features=32, bias=True)
            )
          )
        )
      )
    )
  )
  (mlp): MLP(
    (mlp): Sequential(
      (0): Linear(in_features=515, out_features=256, bias=True)
      (1): SELU()
      (2): Linear(in_features=256, out_features=128, bias=True)
      (3): SELU()
      (4): Linear(in_features=128, out_features=46, bias=True)
    )
  )
)
2024-02-02 09:36:39,500 - # params of pretrained model: 297964

2024-02-02 09:36:41,603 - {'epoch': 0, 'train_loss': '14.2793'}
2024-02-02 09:36:42,078 - Validation score increased.  Saving model ...
2024-02-02 09:36:43,114 - {'epoch': 1, 'train_loss': '2.3356'}
2024-02-02 09:36:43,552 - Validation score increased.  Saving model ...
2024-02-02 09:36:44,501 - {'epoch': 2, 'train_loss': '1.5639'}
…
